models/5pred_biLSTM_whole_ver2_weights.pth (torch, 18544 bytes, 18 tensors)

lstm.weight_ih_l0 f4 [32, 10]
0	0x3ecafeac	0.39647424
1	0x3dab70c5	0.083711185
2	0xbf0b1054	-0.5432179
3	0x3fa6d4bd	1.3033673
4	0x3e3bcd52	0.18340042
5	0x3d913d82	0.0709181
6	0x3f23d4bf	0.639965
7	0x3e53169f	0.20614098
8	0xbf6e543f	-0.930973
9	0x3e23c3b7	0.15992628
10	0xbff7d491	-1.9361745
11	0xc007fc63	-2.1247795
12	0x3ed67368	0.41884923
13	0xbe6b5721	-0.22982456
14	0xbe21f948	-0.1581775
15	0x3ec7b4ac	0.3900503
16	0xbd0e3740	-0.03472066
17	0xbe01d992	-0.12680653
18	0xbed63655	-0.41838327
19	0xbe6ad471	-0.22932602
20	0x3ef8e56b	0.48612532
21	0xbe76d842	-0.24105933
22	0xbf5c25ba	-0.85995066
23	0xbf9d3980	-1.2283173
24	0xbfeac569	-1.8341495
25	0xbb33ff06	-0.0027465238
26	0xbf42956c	-0.7600925
27	0x3ee131bc	0.43983257
28	0xc002e10d	-2.044986
29	0x3e6693d2	0.22517326
30	0x3fb5507b	1.4165186
31	0x3f5125fe	0.81698596
32	0xbf28c1a4	-0.6592047
33	0x3ea3234d	0.3186287
34	0x3fb90724	1.4455304
35	0xbf5cf886	-0.86316717
36	0x3f2d8ce0	0.67793083
37	0x3f2c10fe	0.6721343
38	0xbf102cb7	-0.5631823
39	0xbf20bed7	-0.627912
40	0x3f935e31	1.151312
41	0xbf6737f0	-0.9031973
42	0xbf41f06e	-0.7575749
43	0xbdb90d6b	-0.090357624
44	0xbea199d2	-0.31562668
45	0x3d9fa2e9	0.077947445
46	0xbe53c5c7	-0.20680915
47	0xbf4412d2	-0.7659122
48	0x3c8d1673	0.017222619
49	0xbf25b108	-0.64723253
50	0x3f97061e	1.1798742
51	0xbca9fc47	-0.020750178
52	0x3de620a0	0.112366915
53	0xbd0522bc	-0.03250383
54	0x3ca6a069	0.020340161
55	0x3e2c63d5	0.16834958
56	0xbe060251	-0.13086821
57	0xbeb361fd	-0.35035697
58	0xbfc5c390	-1.5450306
59	0x3e133747	0.14376555
60	0x3f05989e	0.52186
61	0xbe5ec04f	-0.21753047
62	0xbe3dda9e	-0.18540427
63	0xbfc7fc29	-1.5623828
64	0xbfacfef7	-1.3515309
65	0x3def320f	0.1167947
66	0xbf7471d0	-0.95486164
67	0x3f6ef847	0.9334759
68	0xbf9b3a28	-1.2127123
69	0x3e8fcd33	0.28086242
70	0x3ef07ca4	0.46970093
71	0xbe0e86bd	-0.13918586
72	0xbf261ea7	-0.6489052
73	0x3f176e5f	0.5915279
74	0x3ea48a12	0.3213659
75	0x3e3ee2e4	0.1864124
76	0x3f25af17	0.6472029
77	0xbdc9b949	-0.098497935
78	0x3dcee402	0.10102083
79	0xbe553177	-0.2081965
80	0xbf2e49d0	-0.6808138
81	0xbd921c07	-0.07134252
82	0xbe184bcb	-0.14872663
83	0xbed4e091	-0.4157758
84	0xbddb0b31	-0.10695494
85	0x3ee85fdb	0.45385632
86	0xbf33a704	-0.7017672
87	0xbf0ebae5	-0.5575393
88	0x3ecf179b	0.40447697
89	0xbe2b3393	-0.16718893
90	0xbfaa7bc8	-1.3319025
91	0xbf9bb92e	-1.2165887
92	0x3fbd55e7	1.479184
93	0x3d150eb0	0.03639096
94	0x3e90d6a8	0.2828877
95	0x3e54bea8	0.20775855
96	0x3f285e9d	0.6576937
97	0x3ed851e0	0.42249966
98	0xc0225952	-2.5367017
99	0x3ea10e45	0.314562
100	0x3f2577f1	0.6463614
101	0xbe8965f8	-0.26835608
102	0xbeaa8aea	-0.33309108
103	0xbff8570e	-1.9401567
104	0xbf907297	-1.128497
105	0x3f2787e3	0.6544172
106	0xbf4b82ce	-0.7949647
107	0x3f6790c3	0.90455264
108	0xbfd44d92	-1.6586173
109	0x3f522e2b	0.82101697
110	0x3f1e312f	0.617938
111	0x3d504b13	0.050852846
112	0xbf097d4f	-0.5370683
113	0x3fa81223	1.3130535
114	0x3e84eb12	0.25960594
115	0xbdb115b2	-0.08646716
116	0xbe94cba6	-0.2906162
117	0xbed29a92	-0.41133553
118	0xbec5800b	-0.38574252
119	0xbeca34f8	-0.39493537
120	0x404f07ce	3.2348514
121	0xbdb47722	-0.08811785
122	0x3f8c5c1e	1.0965612
123	0x3eebb0cc	0.46033323
124	0x3e4052fe	0.18781659
125	0x3f2dd65d	0.6790522
126	0x3e3d98a8	0.18515265
127	0x3e8edcf8	0.2790296
128	0x3f9ae703	1.2101749
129	0x3f5ae282	0.85501873
130	0x3f96877f	1.17601
131	0xbd98b2ba	-0.074559644
132	0xbe021380	-0.12702751
133	0xbf6cc972	-0.9249488
134	0x3e191b9c	0.14951938
135	0x3f0dee71	0.5544196
136	0xbedea49a	-0.43484956
137	0x3e5b0651	0.21389128
138	0xbf673c04	-0.9032595
139	0x3f1dfd22	0.61714375
140	0x3ea67f33	0.3251892
141	0xbe83e05b	-0.25757107
142	0xbd79f157	-0.061021175
143	0xbfb5a6d4	-1.4191537
144	0xbf93521f	-1.1509436
145	0x3ef9850f	0.48734328
146	0xbebef98f	-0.37299773
147	0x3f3eb8da	0.7450081
148	0xbf3f341e	-0.746889
149	0x3f0aee90	0.5427027
150	0x3f22a086	0.6352619
151	0x3cdbfb7f	0.026853321
152	0xbf44b2da	-0.76835406
153	0x3f7d8233	0.99026793
154	0xbf344da3	-0.70430964
155	0xbd2aa1a8	-0.041658074
156	0xbe9359bf	-0.28779408
157	0xbdd5e277	-0.10443585
158	0x3f4975c5	0.7869533
159	0x3eac5ae6	0.336631
160	0x403a5f24	2.912057
161	0x3df93f8c	0.12170324
162	0x3e49aea1	0.19695522
163	0xbdae7893	-0.085190915
164	0xbe68d12f	-0.22736047
165	0x3df96894	0.1217815
166	0x3d702cf8	0.058636636
167	0xbe5fe463	-0.21864466
168	0xbe0cb7fe	-0.13742062
169	0x3c843749	0.016139643
170	0x4030641e	2.7561107
171	0xbfbb252d	-1.462072
172	0x3f000359	0.5000511
173	0xbe28c7b4	-0.1648243
174	0x3eb376a0	0.3505144
175	0xbd8b35be	-0.0679736
176	0x3e258a72	0.16166094
177	0x3d1dfb44	0.038569704
178	0xbe45ad89	-0.1930448
179	0x3dfa2254	0.12213579
180	0xbf908bc2	-1.1292651
181	0xbecafdec	-0.39646852
182	0x3f845a09	1.0339977
183	0x3e787c2d	0.2426612
184	0x3f0c293c	0.5475042
185	0x3dc95ebe	0.09832524
186	0x3f5d7283	0.86502856
187	0x3d0597cc	0.032615468
188	0xbeb22fe8	-0.34802175
189	0xbed3a5b5	-0.41337362
190	0xc0476cd2	-3.1160169
191	0xbe9dac15	-0.3079535
192	0x3b8e8894	0.0043497775
193	0x3dabcb4c	0.08388385
194	0xbdb85a16	-0.090015575
195	0x3dbdee8f	0.09274017
196	0x3e41790c	0.18893832
197	0x3dcf53a1	0.10123373
198	0x3c55f443	0.013058725
199	0xbc6cddae	-0.014457149
200	0xbfdb6ccf	-1.7142581
201	0x3eae54c8	0.34049058
202	0x3eb70ede	0.3575353
203	0x3e6731b0	0.22577548
204	0xbe9e05b8	-0.30863738
205	0xbd1f38c2	-0.038872488
206	0x3e352d29	0.17693008
207	0x3eb572f9	0.3543928
208	0xbf169b40	-0.5883064
209	0xbcc753bf	-0.024331925
210	0x3f8a8fc2	1.0825121
211	0x3de42dca	0.11141546
212	0xbe0b4c62	-0.13603356
213	0x3eaf1fa4	0.34203827
214	0x3fbac44c	1.4591155
215	0xbf20e0bb	-0.6284291
216	0xbe3afd0a	-0.18260589
217	0xbe820a39	-0.25398424
218	0x4020eeb1	2.5145686
219	0xbedcfaf6	-0.43160218
220	0xbc150fc9	-0.009098002
221	0x3e28c910	0.1648295
222	0x3f2ef1c2	0.68337643
223	0x3fdccb01	1.7249452
224	0xbf067731	-0.5252562
225	0x3db039d1	0.086047776
226	0x3e8fd74c	0.28093946
227	0xbebf33e8	-0.3734429
228	0x403ac55f	2.9182966
229	0x3da92937	0.08259814
230	0xc00a13b7	-2.1574533
231	0x3dc38912	0.095476285
232	0x3e1a0172	0.15039614
233	0xbe72bcfe	-0.23704907
234	0xbdb6bb3d	-0.089224316
235	0x3e817c22	0.25290018
236	0x3d593667	0.053030398
237	0xbe979cb2	-0.29611737
238	0xbd93d837	-0.07218974
239	0x3c921dba	0.01783644
240	0x3efdb780	0.49554062
241	0x3f23b2ab	0.639445
242	0x3e7a46ef	0.24441122
243	0x3fdb7978	1.7146444
244	0x3f2bac1f	0.6705951
245	0x3f476fe7	0.77905124
246	0x3fe451b5	1.7837435
247	0x3ef274b8	0.47354674
248	0xbf3b197d	-0.7308577
249	0x3f422fd0	0.75854206
250	0xbfc4f009	-1.5385753
251	0xbfea6b44	-1.8313985
252	0x3ec48a21	0.38386634
253	0xbe05df71	-0.13073517
254	0xbe680aa5	-0.2266031
255	0x3f3a6623	0.728121

lstm.weight_hh_l0 f4 [32, 8]
0	0xbdc7f443	-0.09763386
1	0xbf61c4dd	-0.88191015
2	0x3f080ffd	0.53149396
3	0xbc58c251	-0.013229922
4	0x3d0f8ffd	0.035049427
5	0xbe3f64be	-0.18690774
6	0x3eb60f40	0.3555851
7	0x3f015f6e	0.5053624
8	0xbef49316	-0.47768468
9	0xbd345f75	-0.044036347
10	0x3ebb78ac	0.36615503
11	0x40a4408f	5.1328807
12	0xbea7fd34	-0.32810366
13	0xba0b181f	-0.00053060235
14	0x3e1e5bd4	0.15464717
15	0x3fbfb25c	1.4976306
16	0x3f12c0f6	0.57325685
17	0xc014483d	-2.316909
18	0xbe9147da	-0.2837513
19	0x3ead5a01	0.3385773
20	0xbf725ee7	-0.9467606
21	0x3f014762	0.50499547
22	0x3f137683	0.5760271
23	0xbef4c38b	-0.47805437
24	0xbe598a61	-0.21244194
25	0x3fb0308f	1.3764819
26	0xbf9ed110	-1.2407551
27	0xbf8822bb	-1.0635599
28	0x3d56f7d1	0.05248243
29	0x3ee45efb	0.44603714
30	0x3d312eae	0.043257408
31	0xbf45bdf1	-0.7724295
32	0xbe0e6bc3	-0.13908295
33	0xbf48b4cd	-0.7840088
34	0xbef8d66e	-0.48601097
35	0xbf2de3a6	-0.6792549
36	0xbe71a7f6	-0.23599228
37	0x3e26b4c9	0.16279902
38	0xbf08ade2	-0.53390324
39	0xbf1e7d87	-0.6191029
40	0x403caefb	2.94818
41	0xbf1c1022	-0.60962117
42	0xbe66e040	-0.22546482
43	0x3eaf16a2	0.34196955
44	0x3d9155c4	0.070964366
45	0x3ed204e5	0.4101936
46	0xbeb104b1	-0.34573892
47	0xbf8c9c27	-1.0985154
48	0xbd942694	-0.07233921
49	0xbfbcbdab	-1.4745382
50	0xbf1d53c4	-0.6145594
51	0xbf0a330a	-0.5398413
52	0xbe6cb328	-0.23115218
53	0x3ea9f881	0.33197406
54	0xbf16fdf1	-0.58981234
55	0xbf39847e	-0.7246779
56	0xbe57e1c7	-0.21082221
57	0xbcee4342	-0.029084805
58	0x3f9650e7	1.174344
59	0xbf81dd14	-1.0145593
60	0x3d871372	0.06595506
61	0x3e2ee05a	0.17077771
62	0x3fcc2022	1.5947306
63	0x3e973f31	0.295404
64	0xbe6e77c2	-0.23287871
65	0xbfcfeec9	-1.6244746
66	0x3c976573	0.018480992
67	0x3f1e2167	0.6176972
68	0xbf8283f0	-1.0196514
69	0x3e54d0d2	0.20782784
70	0xbf8a1f32	-1.079077
71	0x3e7b9594	0.24568778
72	0xbf620d41	-0.88301474
73	0xbf402d0e	-0.7506875
74	0x3f194b62	0.5988065
75	0x3ff907fc	1.9455562
76	0xbe3bc8c9	-0.18338312
77	0x3f0fcc78	0.5617137
78	0xbc057e07	-0.008147723
79	0x401f82f8	2.4923687
80	0x3f22ea77	0.63639015
81	0xc03a2e18	-2.9090633
82	0xbf11d3e2	-0.5696393
83	0x3f86d87e	1.0534818
84	0xbf7834f9	-0.9695583
85	0x3eab0daa	0.33408862
86	0xbf03cec0	-0.5148735
87	0xbf0f47db	-0.5596902
88	0xbf9705ed	-1.1798683
89	0xbfda95fc	-1.7077022
90	0x3ea4c37d	0.32180396
91	0x3fb9b9a5	1.4509779
92	0x3f022206	0.50833166
93	0x3cd38250	0.025818974
94	0xbf5e6a52	-0.8688098
95	0x3e79135f	0.24323796
96	0x400cf068	2.2021732
97	0x3efed4dc	0.49771774
98	0x3e449f06	0.19201288
99	0x3f17332d	0.59062463
100	0xbf5ccff6	-0.86254823
101	0x3e38aaea	0.18033949
102	0x3f8abc72	1.0838759
103	0xc031c390	-2.7775612
104	0x3f7495d8	0.95541143
105	0xbf3432be	-0.70389926
106	0x3d06c627	0.032903817
107	0xbf268a7c	-0.6505506
108	0x3f9d18d8	1.2273207
109	0xbe5687af	-0.20950197
110	0xbe8eaa03	-0.27864084
111	0x3e463dc8	0.19359505
112	0xbf2d14d2	-0.67609894
113	0xbf82661f	-1.0187415
114	0xbf5ced90	-0.8629999
115	0x3fa2b8dd	1.2712666
116	0xbf5a38eb	-0.852431
117	0x3f3a1118	0.72682333
118	0xbf0eef95	-0.55834323
119	0x3e5e1997	0.21689449
120	0xbe5ad497	-0.21370159
121	0xbf8397f5	-1.0280749
122	0x3f56ed60	0.83955956
123	0xbeaf2e35	-0.3421494
124	0xbf195fe1	-0.59911925
125	0x3f1827ee	0.5943593
126	0x3e65bc5c	0.22435135
127	0x3da162da	0.078801826
128	0xbf007c7b	-0.5018994
129	0x3d619ccd	0.055081178
130	0x3f22f501	0.63655096
131	0x3f417a38	0.75577116
132	0x3f3fc482	0.7490922
133	0xbebbdc73	-0.36691627
134	0x3e5f5419	0.21809424
135	0x3e9defb4	0.3084694
136	0x3ee5a017	0.448487
137	0x3fe645da	1.7990067
138	0xbf2445ee	-0.64169204
139	0xbebd8962	-0.37018877
140	0x3f8a8f91	1.0825063
141	0xbf8b9d82	-1.0907443
142	0xbe609a09	-0.2193376
143	0x3dbc5065	0.091950215
144	0xbe95601e	-0.29174894
145	0xbfa91d76	-1.3212116
146	0x3ee429bf	0.445631
147	0x3ee98927	0.4561245
148	0x3e8acdb6	0.2711007
149	0x3f68f464	0.9099791
150	0x3ed75adf	0.42061517
151	0x3f103f14	0.5634625
152	0x3f0c9288	0.5491109
153	0xbcfbc6fd	-0.030734533
154	0xbea54bd4	-0.32284415
155	0xbe6cebda	-0.23136845
156	0xbf699867	-0.9124817
157	0xbc005efd	-0.007835147
158	0x3e9b4fb3	0.30334243
159	0xbf828ad2	-1.0198615
160	0xbf6165da	-0.8804604
161	0x3fca37ae	1.5798242
162	0x3ecaa383	0.39577875
163	0xbda456c6	-0.08024363
164	0x3f2af426	0.6677879
165	0xbe8a5852	-0.27020508
166	0x3f7c0a21	0.98452955
167	0x3f8d6038	1.1044989
168	0xbefdc162	-0.49561602
169	0x3db681b7	0.0891146
170	0xbf815e98	-1.0106993
171	0xbf0a9532	-0.54133904
172	0xbec750a7	-0.3892872
173	0xbd90fe85	-0.07079796
174	0xbfe9b70d	-1.8258988
175	0x3f4ecc62	0.80780613
176	0xbed8bdec	-0.423324
177	0x3d03affc	0.032150254
178	0x3fac5770	1.3464184
179	0x3f1e8394	0.6191952
180	0x3ed58f92	0.41711098
181	0x3e23fcd7	0.1601442
182	0x3e80b972	0.25141484
183	0x3f689333	0.9084961
184	0xbd48929b	-0.04896794
185	0x3dac4000	0.084106445
186	0xbe1ae5df	-0.15126751
187	0x3f6f3ac0	0.9344902
188	0xbf7cf73f	-0.9881477
189	0xbf4179c7	-0.7557644
190	0xbf458f6f	-0.7717199
191	0xbd927d54	-0.07152811
192	0xbecdb15a	-0.4017437
193	0xbbe962ea	-0.007122387
194	0x3f3a24c6	0.7271236
195	0xbeb94f5b	-0.36193356
196	0x3c253294	0.01008286
197	0x3d0d08e9	0.034432326
198	0x3f519c90	0.8187952
199	0x3ec47852	0.38373047
200	0xbf389e0e	-0.7211617
201	0xbe9d7952	-0.30756623
202	0x3f9ec876	1.2404926
203	0x3f590511	0.84773356
204	0xbf42c1a7	-0.7607674
205	0xbdc4bde7	-0.096065335
206	0x3f942df8	1.1576529
207	0x3f76005e	0.9609431
208	0x3e67925c	0.22614425
209	0xbffb16a5	-1.9616286
210	0xbebb9a8f	-0.36641356
211	0xbec9bb51	-0.39400724
212	0xbfcc4180	-1.5957489
213	0x3f172efd	0.59056073
214	0xbf1dc537	-0.6162905
215	0xbf7fdd45	-0.99947006
216	0xbf94715e	-1.1597097
217	0xbda9c29d	-0.08289073
218	0xbee2c12f	-0.44288012
219	0xbf8f1828	-1.1179247
220	0x3f8a3220	1.0796547
221	0x3e18b947	0.14914428
222	0xbe0bbd94	-0.13646537
223	0xbe126ad2	-0.14298561
224	0xbeb49623	-0.35270795
225	0xbe272a51	-0.16324736
226	0x3e2c443c	0.16822904
227	0xbe9e9ceb	-0.30979094
228	0xbf934cfe	-1.1507871
229	0x3e26a16a	0.16272512
230	0x3ec1f6c3	0.37883577
231	0xbe97a884	-0.29620755
232	0x3fa09295	1.2544733
233	0xbfe8251e	-1.8136327
234	0x3f38fe02	0.72262585
235	0xbe9c6736	-0.30547494
236	0xbda3beaf	-0.079953544
237	0x3f1b8af7	0.6075892
238	0xbdab95a2	-0.083781496
239	0xbf2ec318	-0.6826644
240	0xbf316d72	-0.69307625
241	0xbf870b63	-1.055035
242	0xbeb3a4e3	-0.35086736
243	0x3ec37e0b	0.381821
244	0xbf073d13	-0.52827567
245	0x3f142f7e	0.5788497
246	0xbf8260e8	-1.0185823
247	0xbf63d91c	-0.8900316
248	0x3eb5c641	0.35502818
249	0xbdacf7b1	-0.08445681
250	0x3e07079a	0.13186494
251	0xbf9e4b6b	-1.2366766
252	0x3e5db0f6	0.21649536
253	0x3f3c2ed5	0.7350896
254	0x3eccf10d	0.40027657
255	0xbe66be01	-0.22533418

lstm.bias_ih_l0 f4 [32]
0	0x3ee2d18a	0.4430049
1	0x3e1bdf2e	0.15221855
2	0xbf176403	-0.5913698
3	0x3e8c92ca	0.2745574
4	0xbf3612fd	-0.71122724
5	0x3e04cc76	0.1296862
6	0xbd945046	-0.072418734
7	0x3ec0a08c	0.37622488
8	0xbeba7f10	-0.36425066
9	0x3f05ee73	0.5231697
10	0xbed9ec0a	-0.42562896
11	0xbf1e260e	-0.61776817
12	0x3d5390a8	0.051651627
13	0xbcb0933f	-0.021554587
14	0xbeb0943f	-0.34488103
15	0xbd3eff5a	-0.04663024
16	0xbeb8d127	-0.3609707
17	0x3e1a4416	0.15065035
18	0xbdaf4ecb	-0.085599504
19	0x3efc5afc	0.49288166
20	0xbd6007a0	-0.05469477
21	0xbe99f49e	-0.3006944
22	0x3db76f28	0.08956748
23	0x3e8c0df6	0.273544
24	0x3f860987	1.0471658
25	0xbec40580	-0.38285446
26	0xbe53a9d7	-0.20670258
27	0xbe249714	-0.16073257
28	0xbe6789ec	-0.22611207
29	0xbee4c1d3	-0.44679126
30	0xbecee8b6	-0.4041192
31	0x3f514b81	0.81755835

lstm.bias_hh_l0 f4 [32]
0	0x3efa5246	0.48890895
1	0xbd468dfa	-0.048475243
2	0xbf068e31	-0.52560717
3	0x3efc80d7	0.49317047
4	0xbf28e9d9	-0.65981823
5	0xbdf1df98	-0.11810225
6	0xbeac1f5d	-0.33617678
7	0x3e1c716c	0.15277642
8	0xbebc2194	-0.36744368
9	0x3e54c96b	0.2077996
10	0xbc86e905	-0.016468534
11	0xbf071848	-0.52771425
12	0x3f15ba53	0.58487433
13	0xbdbb77e8	-0.0915373
14	0xbd43376d	-0.04766028
15	0xbd7d9677	-0.061911073
16	0xbe18b36b	-0.14912193
17	0x3e8721be	0.2639293
18	0x3eec4938	0.4614961
19	0x3d68a10d	0.056794215
20	0x3d99932f	0.07498776
21	0xbe28e9a3	-0.16495375
22	0x3eaafb48	0.33394837
23	0x3e763674	0.2404421
24	0x3f770380	0.96489716
25	0xbe48c251	-0.19605376
26	0xbf057b93	-0.52141684
27	0x3ec21305	0.37905136
28	0xbe74779a	-0.2387375
29	0xbf14b22d	-0.58084375
30	0xbe070581	-0.13185693
31	0x3ed696a0	0.41911793

lstm.weight_ih_l0_reverse f4 [32, 10]
0	0xbd8d8901	-0.06910897
1	0xbe22d314	-0.15900832
2	0x3f1292a9	0.57255036
3	0xbea67b2a	-0.32515842
4	0x3f3af458	0.7302909
5	0x3e889be4	0.26681435
6	0x3f272dfe	0.65304554
7	0x3eed9963	0.46406087
8	0x3da015be	0.07816647
9	0x3f33b428	0.7019677
10	0x40075e28	2.1151218
11	0x3d99b9f4	0.07506171
12	0x3e2a5e45	0.16637523
13	0x3d85cbad	0.06532989
14	0x3e26ff14	0.16308242
15	0x3d93183a	0.07182355
16	0xbdfe3fb7	-0.124144964
17	0xbf0af141	-0.54274374
18	0x3ebb5a99	0.36592558
19	0xbd97b5bc	-0.0740771
20	0x3f30feb7	0.69138664
21	0x3ed12182	0.40845877
22	0xbf783f7b	-0.96971864
23	0xbf358fa6	-0.70922315
24	0xbf8663e6	-1.0499237
25	0x3debd630	0.115154624
26	0x3f2a9461	0.6663266
27	0xbf14e764	-0.58165574
28	0xbe7e5575	-0.24837287
29	0xbe64b052	-0.22332886
30	0xbf8f85ff	-1.1212767
31	0xbe629d6a	-0.22130361
32	0xbfc4859d	-1.5353276
33	0xbf25eabf	-0.6481132
34	0x3ed7b036	0.42126626
35	0xbf07948e	-0.5296105
36	0xbe02f802	-0.1278992
37	0x3e6caf22	0.23113683
38	0xbf2403ac	-0.640681
39	0xbf45caa9	-0.7726236
40	0x403d409c	2.9570684
41	0x3ecda783	0.40166864
42	0x3e4f8fad	0.20269652
43	0x3df5ccdd	0.12001965
44	0x3e656316	0.2240108
45	0x3ea86b1f	0.32894227
46	0xbc992beb	-0.0186977
47	0x3df1fd26	0.11815862
48	0x400254ee	2.0364337
49	0xbdce7bdd	-0.10082219
50	0x3fb811bd	1.4380413
51	0xbd0e6ddb	-0.034772735
52	0xbf8eb1e6	-1.114804
53	0xbde3d408	-0.11124426
54	0xbf14c45a	-0.5811211
55	0x3e1ac4f1	0.1511419
56	0xbefc7dde	-0.4931478
57	0xbe82d7ec	-0.2555536
58	0xbf26fcfc	-0.65229774
59	0xbe9e7868	-0.30951238
60	0x3eb072ed	0.3446268
61	0xbdd137b8	-0.10215706
62	0xbf3085c2	-0.689541
63	0x3e98b2c7	0.29823896
64	0x3f1d03c8	0.61333895
65	0xbe48866d	-0.1958253
66	0xbed6d70f	-0.41960952
67	0xbf2dac46	-0.67840993
68	0xbf716cd4	-0.94306684
69	0xbed6a7c0	-0.41924858
70	0x3fbd2446	1.4776695
71	0xbee4722e	-0.44618362
72	0xbf1b089a	-0.6056
73	0xbe8c511d	-0.27405635
74	0xbee97af6	-0.45601624
75	0xbdccc160	-0.09997821
76	0x3dd6ac16	0.104820415
77	0xbd16764b	-0.036733907
78	0x3f915a20	1.1355629
79	0x3c7f8d1a	0.015597606
80	0x3f879945	1.0593649
81	0x3ed1c692	0.4097181
82	0x3ee87d99	0.45408323
83	0xbe388a0f	-0.18021415
84	0xbb6a9114	-0.003579204
85	0xbe8b82f4	-0.27248347
86	0x3f6e997c	0.9320295
87	0x3adcbe0d	0.0016841308
88	0xbf718442	-0.94342434
89	0xbe959f14	-0.2922293
90	0x401f5233	2.489392
91	0x3f932278	1.1494894
92	0xbeaf4e8b	-0.3423961
93	0x3fa7fec9	1.3124629
94	0x3e9ab83b	0.30218682
95	0xbf055208	-0.52078295
96	0x3e306a31	0.17228009
97	0x3f0f7643	0.5603983
98	0xbf0a80d8	-0.5410285
99	0x3f1dfaef	0.6171102
100	0x3f863300	1.0484314
101	0x3ddbef59	0.10739011
102	0x3f4ec2aa	0.80765784
103	0xbf3a037e	-0.7266158
104	0xbf6a1fcb	-0.9145476
105	0x3f30339d	0.68828756
106	0x3f7a8bf4	0.978698
107	0x3f8f10cd	1.1177002
108	0x3dcf4973	0.10121431
109	0x3f5d40e7	0.8642716
110	0x3fdc475c	1.7209277
111	0x3f8d1c83	1.1024326
112	0x3ed60575	0.41801038
113	0x3ec79023	0.38977155
114	0x3f93e71b	1.1554903
115	0xbf5a41a4	-0.8525641
116	0x3f6de3bc	0.9292562
117	0x3f1ecc7a	0.62030756
118	0x3ff535de	1.9157064
119	0x3f8a1a7c	1.0789332
120	0x3f1fdf40	0.6245003
121	0x3eb8feef	0.36132
122	0x3f4fd75c	0.8118799
123	0xbf0cc2b8	-0.5498462
124	0x3eafe0c5	0.34351173
125	0xbf308a79	-0.6896129
126	0x3f6e3c29	0.9306055
127	0xbf6009cf	-0.87514967
128	0x4015cf8a	2.3407922
129	0xbf4aae15	-0.7917188
130	0x40b54cf9	5.665646
131	0x3f46416f	0.77443594
132	0xbf49901a	-0.78735507
133	0x3f6e62f7	0.9311976
134	0xbed090fc	-0.40735614
135	0xbf041692	-0.5159694
136	0x3ef5ac7a	0.47983152
137	0x3c3d3fb8	0.011550836
138	0xbfaad359	-1.3345748
139	0xbe4d0721	-0.2002225
140	0xbf52b48a	-0.8230673
141	0x3f74ea65	0.9567016
142	0xbdf336fc	-0.11875722
143	0xbf11cd9b	-0.56954354
144	0x3fb94131	1.447302
145	0x3f966249	1.1748744
146	0xbf3797ed	-0.71716195
147	0x3e23b1cc	0.15985793
148	0x40174aa4	2.3639307
149	0xbe246081	-0.16052438
150	0x3f0e112b	0.55494946
151	0x3f624395	0.8838437
152	0x3f73c787	0.9522633
153	0x3eb5fb93	0.35543498
154	0x3fa72be5	1.306027
155	0xbe12b9b8	-0.14328659
156	0x402f155d	2.735679
157	0x3f46ef23	0.77708644
158	0xbee2bf6b	-0.44286665
159	0xbd88cd8c	-0.0667983
160	0x4040b54d	3.0110657
161	0xbdfcec8e	-0.12349807
162	0xbe2ff940	-0.17184925
163	0x3ddf5e70	0.109066844
164	0x3d0420e6	0.032257937
165	0xbda2fcad	-0.0795835
166	0x3c362c4e	0.0111189615
167	0x3e1e0843	0.15432839
168	0xbda96b63	-0.082724355
169	0xbc480383	-0.0122078685
170	0xc0866d35	-4.200831
171	0x3e69aec6	0.22820577
172	0x3cf5d3ca	0.030008215
173	0xbe2443a7	-0.16041432
174	0xbd8d2dc3	-0.06893494
175	0xbe3c6626	-0.18398342
176	0xbd08ea9d	-0.03342687
177	0x3e7acd4c	0.24492377
178	0xbdc1c693	-0.09461703
179	0xbdf17714	-0.117902905
180	0x3fb01c97	1.3758725
181	0x3f257a19	0.6463943
182	0x3e72ae21	0.23699237
183	0xbf348166	-0.70509946
184	0x3f62f7a3	0.88659114
185	0xbdc46ae2	-0.09590699
186	0xbf423b42	-0.7587167
187	0xbe77596b	-0.24155204
188	0x3ef7b4ee	0.48380226
189	0x3d1b1fd6	0.037872158
190	0x3f42d23e	0.76102054
191	0x3f103984	0.5633776
192	0xbf90e0da	-1.1318619
193	0xbfae6825	-1.3625532
194	0x3f5c921a	0.86160433
195	0xbe7942fb	-0.24341957
196	0xbe7ceaab	-0.24698894
197	0xbed5d7f8	-0.41766334
198	0x3f0751af	0.52859014
199	0xbe55e194	-0.20886832
200	0xc00bbd87	-2.1834428
201	0xbe9b1fcc	-0.30297697
202	0xbee452fa	-0.44594556
203	0xbd116933	-0.035500716
204	0xbf303c28	-0.6884179
205	0xbee2a612	-0.44267327
206	0x3e0f9988	0.14023411
207	0x3eafeda9	0.34361008
208	0xbf36d748	-0.71422243
209	0xbd9bdcb8	-0.07610458
210	0x3ffbf924	1.9685407
211	0xbf1b3728	-0.60631037
212	0x3e2064ce	0.15663454
213	0xbe3e24bd	-0.18568702
214	0x3ecf7ce5	0.40524974
215	0xbcd9b72d	-0.026576603
216	0xbe384e8b	-0.17998712
217	0x3e85a0fd	0.26099387
218	0xbe1b8f18	-0.15191305
219	0xbefbddd5	-0.49192682
220	0xbfe249d6	-1.7678783
221	0x3e90a2fa	0.2824934
222	0xbf0f83c2	-0.5606042
223	0x3eda182d	0.4259657
224	0xbefe0402	-0.49612433
225	0x3d53c99b	0.051705938
226	0xbc87fb94	-0.016599454
227	0xbe304cb8	-0.17216766
228	0xbe6c376a	-0.23068014
229	0xbc855cd1	-0.01627961
230	0x4016d261	2.3565905
231	0xbe19b0f8	-0.15008914
232	0xbe6c87fc	-0.23098749
233	0xbe29f34f	-0.16596721
234	0x3c94af9f	0.018150149
235	0xbf026460	-0.5093441
236	0x3eb1f729	0.3475888
237	0x3ea4e4c7	0.32205793
238	0xbf4a3cbb	-0.7899892
239	0xbdb05011	-0.086090215
240	0xbd4f5e98	-0.05062732
241	0x3c9b576e	0.018962588
242	0x3f5a29f1	0.8522025
243	0x3fe9b646	1.825875
244	0x3e89f49b	0.26944432
245	0x3f1fe4cc	0.6245849
246	0x3f1ace84	0.6047137
247	0x3e996bdd	0.29965106
248	0x40b93e1d	5.788832
249	0x3f1a68a3	0.6031591
250	0x3fc7c792	1.5607779
251	0xbe6f3940	-0.23361683
252	0xbcdafb67	-0.026731206
253	0xbeb93885	-0.36175933
254	0x3f3ea026	0.7446312
255	0x3d39b922	0.045342572

lstm.weight_hh_l0_reverse f4 [32, 8]
0	0xbf48d3c8	-0.7844815
1	0xbda99593	-0.08280482
2	0x3ec5f965	0.38666835
3	0x3f14c45d	0.58112127
4	0x3f4ebc43	0.80756015
5	0x3e6bc75e	0.23025271
6	0xbf4e814c	-0.8066604
7	0x3e46a711	0.19399668
8	0x3f0dee93	0.5544216
9	0xbf1c3590	-0.6101923
10	0x3f9cd4b2	1.225241
11	0x3f2713bc	0.6526449
12	0xbef230b2	-0.47302777
13	0xbf68f842	-0.9100381
14	0x3fa0d9eb	1.2566503
15	0xbe971f45	-0.29516044
16	0x3e9d63d8	0.30740237
17	0x3eaeaa1a	0.34114152
18	0xbf09b445	-0.53790694
19	0x3ec89383	0.39175043
20	0xbe6f3710	-0.23360848
21	0xbef824bc	-0.48465526
22	0xbeec71fb	-0.4618071
23	0x3e489453	0.19587831
24	0xbff6167a	-1.9225609
25	0xbd9fa1cc	-0.07794532
26	0x400767d8	2.1157131
27	0xbf5f75e0	-0.8728924
28	0xbff9c021	-1.9511758
29	0xbf94b8ad	-1.1618859
30	0x400e2378	2.2209148
31	0xbf61548e	-0.88019645
32	0xbf32bea6	-0.69822156
33	0x3ea14941	0.315012
34	0x3e355d04	0.17711264
35	0xbf3449dd	-0.70425206
36	0x3cbcb964	0.02303762
37	0x3e73decd	0.2381546
38	0x3edb3d41	0.4282017
39	0x3e18912a	0.14899126
40	0x3fa6c349	1.3028346
41	0xbeff04b3	-0.49808273
42	0x3e59d07d	0.21270938
43	0x3f9fb4ca	1.2477047
44	0x3f84a896	1.0363948
45	0x3fb90e7b	1.4457544
46	0xbf4edefa	-0.80808985
47	0x3f669979	0.9007793
48	0x3d7ed6e6	0.062216662
49	0xbf4f53b8	-0.8098712
50	0x3e94fe9a	0.29100496
51	0xbf67294f	-0.90297407
52	0x3eceb223	0.40370283
53	0x3f5e97d5	0.8695043
54	0x3f5a5575	0.8528665
55	0x3f17d6c1	0.59312063
56	0x3f3383e3	0.7012312
57	0xbfca409f	-1.5800971
58	0x3f78f94b	0.9725539
59	0x3db60275	0.088871874
60	0xbf993818	-1.1970243
61	0xbeac7a18	-0.336869
62	0x3efd996a	0.49531108
63	0x3f9f26b0	1.2433681
64	0xbfc71e4d	-1.5556122
65	0x3e8a2ac3	0.2698575
66	0x3ea195ef	0.31559703
67	0x3f10784e	0.5643357
68	0xbcf98b7e	-0.030462023
69	0x3f6f2836	0.9342073
70	0xbf09523f	-0.5364112
71	0x3cc1548d	0.023599887
72	0x3f4d4876	0.8018869
73	0xbe46b53a	-0.1940507
74	0x3efd66e1	0.49492553
75	0xbf02d136	-0.5110048
76	0x3de0b3b9	0.109717794
77	0xbdc1c8f3	-0.09462156
78	0x3e446be3	0.1918178
79	0x3e354132	0.17700651
80	0x3f54e8b8	0.831676
81	0x3eb8a450	0.3606286
82	0xbfcd31e6	-1.6030853
83	0x3f8890ed	1.0669228
84	0x3f2b0276	0.6680063
85	0xbe10fcff	-0.1415901
86	0xbfc678ff	-1.5505675
87	0x3f3b4a45	0.731602
88	0xbf86f195	-1.0542475
89	0xbc883897	-0.016628547
90	0xbf94ddc7	-1.1630181
91	0xbf52b70b	-0.8231055
92	0x3eed8363	0.46389303
93	0x3fd05484	1.6275792
94	0xbe156ecd	-0.14593048
95	0x3e6d7c2d	0.231919
96	0xbf4c05bb	-0.79696244
97	0x3f0e7e88	0.5566182
98	0x3f1dcdc3	0.6164209
99	0x3f7a6253	0.9780628
100	0xbe09109e	-0.13385245
101	0xbdd3b094	-0.10336414
102	0xbdcacb9b	-0.09902116
103	0xbf296d8f	-0.661828
104	0x3e72ed6f	0.23723386
105	0xbedfdbb1	-0.437223
106	0x3e08087a	0.13284484
107	0x3f0acdb5	0.54220134
108	0x3f0c1d91	0.54732615
109	0x3ec9a6a7	0.39384958
110	0xbef0afac	-0.47009027
111	0x3f098c15	0.53729373
112	0xbea7f23a	-0.32801992
113	0xbea035ee	-0.31291145
114	0xbf39102c	-0.722903
115	0x3f80ec06	1.0072029
116	0x3df13498	0.117776096
117	0x40128109	2.2891257
118	0xbff187e1	-1.8869592
119	0x3f88b7ae	1.0681055
120	0x3dfb1062	0.12258984
121	0xbef58627	-0.47953913
122	0x3f32542b	0.6965968
123	0xbe4bf1f3	-0.19916515
124	0xbe45dbfa	-0.19322196
125	0x3f81e7ed	1.0148903
126	0xbe84acf7	-0.25913212
127	0x3fce855e	1.613445
128	0x3e2c50b9	0.16827668
129	0xbfcf262e	-1.6183527
130	0x3d97f282	0.074193016
131	0xbfc0af5b	-1.5053514
132	0xbec3bcbf	-0.3822994
133	0xbddca203	-0.10773089
134	0x3e8e8971	0.27839234
135	0x3f3aaaf5	0.7291711
136	0xbf1d3106	-0.6140293
137	0x3f152585	0.58260375
138	0xbf6e250b	-0.93025273
139	0x3ecef27c	0.40419376
140	0x3f60cff9	0.8781734
141	0x3f951977	1.1648396
142	0xbf8cd6d6	-1.1003063
143	0x3e879b06	0.2648546
144	0xbece24ff	-0.402626
145	0x3e2c0aaf	0.1680095
146	0x3f79fb85	0.97649413
147	0xbdf5aa51	-0.11995376
148	0xbfc753fd	-1.5572506
149	0xbdec8b66	-0.11550026
150	0x3f646e1a	0.892305
151	0xbf29d3d2	-0.6633884
152	0x3eec3418	0.46133494
153	0x3f520c91	0.82050425
154	0x3e9cda15	0.30635133
155	0x3f8da7b5	1.1066805
156	0x3fbc09ce	1.4690492
157	0x3fcd01be	1.6016157
158	0xc0084d14	-2.1297045
159	0xbe827c14	-0.2548529
160	0x3f6bee70	0.921607
161	0xbf4ed2b6	-0.8079027
162	0xbfa78a74	-1.3089128
163	0xbf5e0998	-0.8673339
164	0x3efedbc0	0.4977703
165	0x3ee73d87	0.4516413
166	0xbf935088	-1.1508951
167	0x3f6b1e9d	0.9184359
168	0x3f4d426a	0.80179465
169	0xbef086dc	-0.4697789
170	0x3ecba5d7	0.39774963
171	0xbec4fdd6	-0.3847491
172	0x3f644f57	0.89183563
173	0x3d2bd1b6	0.041948043
174	0xbe90fc09	-0.28317288
175	0x3ef6fa33	0.48237762
176	0xbfa66eb2	-1.3002532
177	0x3f2c684e	0.67346656
178	0xbeb1f286	-0.34755343
179	0x3eda5031	0.42639306
180	0x3d7720a7	0.060333874
181	0xbf75a561	-0.95955473
182	0xbeeaca91	-0.4585767
183	0xbfa21a42	-1.2664263
184	0x3f17b8d2	0.5926639
185	0xc0095654	-2.145894
186	0x3f973a4a	1.1814663
187	0xbfb2c868	-1.3967409
188	0xbfe9ef95	-1.827624
189	0xbee6d5cc	-0.4508499
190	0x3f8d8d74	1.1058793
191	0x3f7b67e7	0.9820542
192	0xbf8c67ab	-1.0969137
193	0xbea5c343	-0.32375535
194	0x3f9596ed	1.1686684
195	0xbf90bda2	-1.1307871
196	0xbef44883	-0.47711572
197	0x3f3c7aab	0.73624676
198	0xbebe8c77	-0.3721654
199	0x3e7cfa8f	0.24704956
200	0x3f2df30c	0.67948985
201	0xbf385d03	-0.72016925
202	0x3f66ace7	0.9010758
203	0x3e831253	0.25599918
204	0x3e4e3d55	0.20140584
205	0xbe67f374	-0.22651464
206	0x3e804bc6	0.2505781
207	0x3cc8e341	0.024522426
208	0x3e766fb0	0.24066043
209	0x3ebbe5b2	0.3669868
210	0xbf3de025	-0.7417014
211	0x3edddcd8	0.43332553
212	0xbf2b7ee1	-0.66990477
213	0xbf314861	-0.69251066
214	0xbd0a005b	-0.033691745
215	0xbdd98bdc	-0.10622379
216	0xbf84a9be	-1.0364301
217	0xbec438df	-0.3832464
218	0xbdb92bcd	-0.090415575
219	0xbf891bfc	-1.0711665
220	0xbfa06537	-1.2530888
221	0xbf092128	-0.5356622
222	0x3fa42dc9	1.2826473
223	0x3e7462c5	0.23865803
224	0xbedff73c	-0.43743312
225	0x3f4eb118	0.80738974
226	0x3df9533e	0.1217408
227	0x3e68870a	0.22707763
228	0xbce057ea	-0.02738567
229	0x3e7e3fc7	0.24829017
230	0xbd867f68	-0.065672696
231	0xbf35e6fa	-0.7105557
232	0xbebb037f	-0.36526105
233	0x3ba9e0ca	0.0051842676
234	0x3f0c2cfa	0.5475613
235	0x3ead7fd0	0.33886576
236	0xbecd8b9b	-0.40145573
237	0x3e8ff1c6	0.28114146
238	0x3e912757	0.28350326
239	0x3e88a5e4	0.26689065
240	0x3d79e03a	0.061004855
241	0xbf476408	-0.7788701
242	0xbf0f94e5	-0.5608657
243	0xbfdfd3a0	-1.7486458
244	0xbe40d1b1	-0.18829991
245	0x3fccf596	1.6012447
246	0xbf89d6e4	-1.0768704
247	0x3f745a7d	0.95450574
248	0x3f83f028	1.0307665
249	0xbfd0a04b	-1.6298918
250	0x3b758831	0.003746521
251	0xbf018b44	-0.5060313
252	0x3ef4965a	0.4777096
253	0x3f73e1f8	0.95266676
254	0xbf20e29e	-0.6284579
255	0x3fc4b77a	1.5368493

lstm.bias_ih_l0_reverse f4 [32]
0	0x3ee20160	0.44141674
1	0xbefbb2d6	-0.49159878
2	0xbf0619de	-0.5238322
3	0xbef99933	-0.48749694
4	0xbe9451c7	-0.2896864
5	0xbea4efe6	-0.32214278
6	0xbea12066	-0.3147003
7	0xbebb8b45	-0.36629692
8	0xbe4cca68	-0.19999087
9	0xbd4c3445	-0.049854536
10	0x3dcd8d9c	0.100367755
11	0x3f1bde4b	0.6088607
12	0xbe1cd8dd	-0.15317102
13	0xbe481f08	-0.19543087
14	0x3ed1894b	0.4092506
15	0x3f0485d0	0.5176668
16	0xbde3b75a	-0.11118956
17	0xbe3db1ed	-0.18524905
18	0xbb85b5b5	-0.004080499
19	0x3d1b9e04	0.037992492
20	0x3e930c63	0.28720388
21	0xbeb37cd1	-0.35056165
22	0x3e00a4ff	0.12562941
23	0x3d7cdbaa	0.061732925
24	0x3f45cf1c	0.7726915
25	0xbeb3d58a	-0.35123855
26	0xbcbae4ac	-0.022814117
27	0x3ea19f0c	0.31566656
28	0x3dc01bca	0.093803
29	0xbf06ab08	-0.5260472
30	0x3dc502bf	0.096196644
31	0xbddf9cb5	-0.10918561

lstm.bias_hh_l0_reverse f4 [32]
0	0x3f5fc5bf	0.8741111
1	0xbd98514d	-0.07437382
2	0xbf012982	-0.5045396
3	0xbec5a80d	-0.38604775
4	0xbe4be9f7	-0.1991347
5	0xbe914264	-0.28370965
6	0xbf32ff99	-0.6992126
7	0xbcf09363	-0.029367154
8	0x3dc94c01	0.0982895
9	0x3dba3b8f	0.09093391
10	0x3e8382b4	0.25685656
11	0x3f3bfbe5	0.73431236
12	0xbc08b1e2	-0.008343192
13	0xbee7d0ed	-0.45276585
14	0x3f14d96f	0.5814428
15	0x3f0340ae	0.5127057
16	0xbe70e5c7	-0.23525153
17	0x3e0154d1	0.12630011
18	0xbcc64c9b	-0.02420645
19	0x3e897caf	0.2685294
20	0xbe8b611d	-0.2722253
21	0xbe4184cd	-0.18898316
22	0x3f17e5e8	0.59335184
23	0xbe441703	-0.19149403
24	0x3ee3c9f2	0.4449001
25	0x3e05269a	0.13003007
26	0x3d1ba012	0.03799445
27	0x3e8790eb	0.2647775
28	0xbe155178	-0.14581859
29	0xbf062154	-0.52394605
30	0x3e60cfae	0.21954224
31	0x3d6662bf	0.056246515

lstm.weight_ih_l1 f4 [32, 16]
0	0x3f9d7286	1.2300575
1	0x3e7bde01	0.24596407
2	0xbe2c95e2	-0.16854051
3	0xbdc1561a	-0.09440251
4	0xbf56c807	-0.8389897
5	0xbdf5e154	-0.120058686
6	0xbeadf810	-0.3397832
7	0xbf755310	-0.9582987
8	0x3ec03f56	0.3754832
9	0x3cf30d9a	0.029669572
10	0x3d62c10b	0.05535988
11	0xbeb8ac30	-0.3606887
12	0x3e53f6db	0.20699637
13	0x3eb5f8f5	0.35541502
14	0xbe8f7634	-0.2801987
15	0x3e3f8bc9	0.18705668
16	0xbec2a3c7	-0.38015577
17	0x3e579108	0.21051419
18	0x3e38c025	0.18042047
19	0xbf874be2	-1.0570033
20	0xbf0a1cc2	-0.5395013
21	0x3ee41046	0.44543666
22	0x3e366e2f	0.17815469
23	0xbf0dbc9d	-0.55365926
24	0x3e9972f9	0.2997053
25	0xbdd636db	-0.104596816
26	0xbf512ac3	-0.81705874
27	0xbf62c795	-0.8858579
28	0xbed31ce1	-0.4123297
29	0x3ed7424b	0.42042765
30	0xbe60d179	-0.21954907
31	0x3f7f0474	0.9961617
32	0xbeac1aea	-0.33614284
33	0x3f32d4ff	0.69856256
34	0xbf6d481b	-0.9268815
35	0x3d93291f	0.071855776
36	0xbed15c57	-0.40890762
37	0xc00524df	-2.0803754
38	0xbfb9aa78	-1.4505148
39	0x3f419df0	0.7563162
40	0x3e29ebc6	0.16593847
41	0xbd859919	-0.06523342
42	0x3e364621	0.1780019
43	0xbfae09f6	-1.359679
44	0x3f0a812f	0.5410337
45	0xbb319e37	-0.002710236
46	0x3e95b081	0.29236224
47	0xbdce3250	-0.1006819
48	0xbf807182	-1.003464
49	0xbeb93fd9	-0.36181524
50	0x3f25a4c6	0.6470455
51	0x3d947054	0.072479874
52	0x3f1cc032	0.61230767
53	0x3e9c3038	0.30505538
54	0xbee0c5df	-0.43900964
55	0xbf9b8dfe	-1.2152708
56	0xbe72f4ba	-0.23726168
57	0x3ea25348	0.31704164
58	0xbea7f35b	-0.32802853
59	0x3e912ba1	0.283536
60	0x3f2bf23a	0.67166483
61	0xbd6d0f13	-0.057875704
62	0xbecf504d	-0.40490952
63	0xbeb4509e	-0.35217756
64	0xbf0a2e65	-0.5397704
65	0xc02dcebf	-2.7157438
66	0xba1a6bdb	-0.00058907055
67	0xbdedc9d7	-0.116107635
68	0x3d844c22	0.06459834
69	0xbdf5337b	-0.1197271
70	0xbdb4e6c9	-0.08833081
71	0x3e87b789	0.26507214
72	0x3f5c7980	0.86122894
73	0x3f7136fb	0.9422452
74	0xbec35325	-0.38149372
75	0xbf9bec43	-1.2181476
76	0x3ec7b89d	0.39008036
77	0x3e0db6f4	0.13839322
78	0x3e059ec7	0.1304885
79	0xbe3cd7c1	-0.18441679
80	0x404d6988	3.209566
81	0xbead8d99	-0.33897093
82	0xbf8de283	-1.1084751
83	0xc00ba96c	-2.1822157
84	0xbf2f8e65	-0.6857665
85	0xbfef5fca	-1.8701108
86	0xbfc20993	-1.5159172
87	0xc0115f1a	-2.2714295
88	0xbb8cffc6	-0.0043029515
89	0x3f1cce34	0.6125214
90	0x3f7af423	0.98028773
91	0xbf7fe498	-0.9995818
92	0x3f073a00	0.52822876
93	0x3f068c41	0.5255776
94	0x3e916889	0.28400066
95	0xbe0db2c8	-0.13837731
96	0x3f06e04e	0.5268601
97	0xbfb0b4d9	-1.380519
98	0xbe3a5afd	-0.18198772
99	0x3f6d68ef	0.9273824
100	0xbf4030c0	-0.75074387
101	0xbeb3a1e3	-0.35084447
102	0xbf826700	-1.0187683
103	0x3f497dca	0.78707564
104	0x3e01d66e	0.12679455
105	0x3ee41807	0.4454958
106	0xbf4bce80	-0.7961197
107	0xbf4da211	-0.8032542
108	0x3f4c200b	0.79736394
109	0x3da50002	0.08056642
110	0x3e45b710	0.19308114
111	0xbe67b92a	-0.22629228
112	0xbdd2c13f	-0.10290765
113	0xbecf899c	-0.40534675
114	0x3d435dc1	0.047696833
115	0xbedb602e	-0.42846817
116	0x3f212c99	0.62958676
117	0x3f4b4eea	0.7941729
118	0x3cae97f8	0.021312699
119	0xbdd8576a	-0.10563548
120	0x3eb50d40	0.3536167
121	0x3f5c756e	0.86116683
122	0xbea22964	-0.31672204
123	0xbe31d949	-0.17368044
124	0xbc09fb90	-0.008421794
125	0xbe0f0fea	-0.13970914
126	0xbf3f2578	-0.7466655
127	0x3e96da17	0.29463264
128	0x3f56063c	0.8360326
129	0x3f16b7ed	0.588744
130	0x3f56a572	0.838462
131	0x3f004615	0.50106937
132	0xbec3e0b8	-0.38257384
133	0xbfa1eb04	-1.2649846
134	0x3f7e0320	0.9922352
135	0x3ed25160	0.4107771
136	0xbdb9f111	-0.09079183
137	0xbefd6e61	-0.49498275
138	0x3fdd2687	1.7277383
139	0xbf4a7911	-0.7909098
140	0xbe981447	-0.2970297
141	0xbf7e5414	-0.99347043
142	0x3ec546b7	0.38530514
143	0xbefcadde	-0.493514
144	0xbf0ae686	-0.54258
145	0xbdfde9ea	-0.12398131
146	0x3eb2e7cf	0.3494248
147	0x3f930dac	1.1488547
148	0xbed799e2	-0.4210959
149	0xbff8a803	-1.9426273
150	0x3f224049	0.6337934
151	0x3fa28efc	1.2699885
152	0xbfb32929	-1.3996936
153	0x3f75d475	0.9602731
154	0x3e60d280	0.219553
155	0xbf429844	-0.7601359
156	0xbe70ae7a	-0.23504058
157	0xbf118e93	-0.56858176
158	0x3d13c47b	0.03607605
159	0xbfd8caae	-1.6936853
160	0x3fd5eaf6	1.6712329
161	0x3f88c954	1.068644
162	0xbe5b2f6e	-0.21404812
163	0x3dbd9ac1	0.092580326
164	0x3e8aaf56	0.27086896
165	0xc0123ac7	-2.2848375
166	0xbf6518ce	-0.89490974
167	0x3ec0cba4	0.37655365
168	0x3f20abbc	0.62762046
169	0xbeb5a302	-0.35475928
170	0xbf166017	-0.5874037
171	0xbfcbd033	-1.5922912
172	0x3f1f6bda	0.62273943
173	0xbe4c4f94	-0.19952232
174	0x3ef96e81	0.4871712
175	0x3e46a5d0	0.1939919
176	0xbfbf5da9	-1.4950458
177	0xc007413c	-2.1133566
178	0x40057686	2.085359
179	0x3fa6d840	1.3034744
180	0x3df18c9b	0.117943965
181	0xbfabd216	-1.3423488
182	0x3fb29f96	1.3954952
183	0x3f866bb0	1.0501614
184	0x3ef32e63	0.47496328
185	0xbef1d6e4	-0.4723426
186	0xbfa5bac7	-1.2947625
187	0xbff7087b	-1.9299463
188	0x3f9d93ce	1.2310731
189	0x3f97a786	1.1847999
190	0xbed9c886	-0.425358
191	0x3dc2bd6a	0.09508784
192	0x3ee1c225	0.44093433
193	0xc05279ef	-3.2886922
194	0xbebab83b	-0.36468682
195	0xbe8723e6	-0.26394576
196	0x3e787efc	0.2426719
197	0x3ec2ea9f	0.38069627
198	0x3db7e801	0.08979798
199	0xbfd2609a	-1.643573
200	0x3ecab8f0	0.3959422
201	0x3f180d17	0.59394974
202	0xbfcd1a19	-1.6023589
203	0xbf05fd38	-0.52339506
204	0x3fc7d09e	1.561054
205	0x3ebe1a0f	0.37129256
206	0xbed069ea	-0.40705806
207	0x3f168ab8	0.5880542
208	0x3f8ee0f5	1.1162401
209	0xc0220684	-2.5316477
210	0xbc29e89f	-0.010370403
211	0x3f23fc11	0.640565
212	0xbf6a257b	-0.9146344
213	0xc0247514	-2.569646
214	0xbeb1fd44	-0.3476354
215	0x3e9647e1	0.29351714
216	0x3f8f60c5	1.1201407
217	0xbdfb8d2e	-0.12282787
218	0xbed907b0	-0.42388678
219	0xbf5c1237	-0.85965294
220	0x3f5a5eb3	0.8530075
221	0x3f855b63	1.0418514
222	0xbeeda55d	-0.46415225
223	0x3f59abda	0.8502785
224	0xbfc1f2d7	-1.5152234
225	0xc008ca61	-2.1373522
226	0xbfb3ec70	-1.405653
227	0x3d76351c	0.060109243
228	0x3ecd9dea	0.4015954
229	0x3eca3623	0.39494428
230	0xc020839f	-2.5080335
231	0x3faaa25f	1.3330802
232	0x3f452ea9	0.7702432
233	0xbe9b0aa3	-0.30281553
234	0xc00298f7	-2.0405862
235	0xbf842abb	-1.032554
236	0x40200513	2.5003097
237	0x3f4080ae	0.7519635
238	0xbf8be4ac	-1.092916
239	0x3f9e1c50	1.235239
240	0xbfa7d645	-1.3112265
241	0xbfb202ab	-1.3907064
242	0x3f35342d	0.7078274
243	0x3ffa8406	1.957154
244	0x3f09e472	0.53864205
245	0xbe0fd945	-0.14047725
246	0x3eba327a	0.36366636
247	0x3fc966a4	1.5734448
248	0x3e519124	0.20465523
249	0x3f815eac	1.0107017
250	0xbf16a724	-0.58848786
251	0xbf0e571c	-0.5560167
252	0x3f32f666	0.69907224
253	0xbdc5a890	-0.09651291
254	0xbf8608ed	-1.0471474
255	0x3d6975b1	0.056997005

lstm.weight_hh_l1 f4 [32, 8]
0	0x3f394a50	0.72379017
1	0x3fafc730	1.3732662
2	0x3e474ecc	0.19463652
3	0x3ef2d948	0.47431397
4	0xc00a45f8	-2.1605206
5	0x3e045284	0.12922102
6	0x3f7016d8	0.93784857
7	0xbfc3ba23	-1.529118
8	0x3e71bed0	0.23607945
9	0x3e6901ff	0.22754668
10	0x3f7e77c1	0.9940148
11	0x3e6a6c4b	0.22892873
12	0xbd480db1	-0.048841182
13	0x3f40f4c7	0.753735
14	0xbe63b427	-0.22236691
15	0x3c91eec3	0.017814046
16	0xbf246992	-0.6422359
17	0xbf1b3689	-0.6063009
18	0x3fb3954b	1.4029936
19	0xbf2774bc	-0.654125
20	0xbf3148e0	-0.69251823
21	0x3f90a860	1.1301384
22	0x3f2b8c9f	0.67011446
23	0xbf3c1810	-0.73474216
24	0xbedd11e5	-0.43177715
25	0xbf516542	-0.8179513
26	0xbf25c12c	-0.6474788
27	0x3f126a98	0.571939
28	0xbe5dacfe	-0.21648023
29	0x3f5c12bc	0.85966086
30	0xbe5f8d6d	-0.21831293
31	0x3f7f8aba	0.99821055
32	0x3f8a51f2	1.0806258
33	0xbf758a6c	-0.9591434
34	0xbe9ee47e	-0.310337
35	0xbe6b74db	-0.22993796
36	0xbea04e52	-0.31309754
37	0xbecd3c2d	-0.40084973
38	0xc004955f	-2.071617
39	0xbebcf024	-0.36901963
40	0x3f02c9a4	0.5108893
41	0xbb0a524f	-0.0021106189
42	0x3fe24a65	1.7678953
43	0xbf91cbbe	-1.1390302
44	0x3e9a68f5	0.301582
45	0xbfaddf6e	-1.358381
46	0xbefcac06	-0.49349993
47	0xbd988f4d	-0.074492075
48	0x3ed9c89f	0.42535874
49	0x3f9c969a	1.223346
50	0x3f8d8f0d	1.1059281
51	0x3e75a42d	0.2398841
52	0xbf5f273c	-0.8716924
53	0x3f86d788	1.0534525
54	0x3dea3e12	0.1143762
55	0xbfb4c65a	-1.4123032
56	0xbe9acf86	-0.30236453
57	0x3f3d61e1	0.73977476
58	0x3dada2f4	0.084783465
59	0xbef6a8c6	-0.4817564
60	0xbfade932	-1.358679
61	0xbed55746	-0.41668147
62	0x3ec8cdda	0.39219552
63	0xbfba7984	-1.4568334
64	0x3f0e8549	0.55672127
65	0x3f9b4d9c	1.213306
66	0x3e3b78be	0.18307778
67	0x3eaed246	0.341448
68	0xbfcf861f	-1.6212806
69	0xbf93158b	-1.1490949
70	0x3fa07101	1.2534486
71	0xbed26670	-0.4109378
72	0x3f5f301c	0.87182784
73	0x3fb01f56	1.3759563
74	0x3f8add90	1.0848866
75	0xbecb3559	-0.3968914
76	0x3dd9f8f3	0.106431864
77	0xbfee0581	-1.859543
78	0xbecdd6e8	-0.40203023
79	0xbf896fc6	-1.0737236
80	0x3ebf4164	0.37354577
81	0xbf2bbbdc	-0.67083526
82	0x3f16c3b1	0.5889235
83	0xbfb1e9ea	-1.389951
84	0x3f4ca980	0.79946136
85	0x3f974919	1.1819183
86	0x3ec11211	0.37709096
87	0x3ed3afc3	0.41345033
88	0xbf50a680	-0.8150406
89	0xbeb89911	-0.3605428
90	0x40338088	2.80472
91	0x3f979125	1.184117
92	0x3eae4145	0.34034172
93	0x3f4829cd	0.7818878
94	0xbf913478	-1.1344137
95	0x3e0f885c	0.1401686
96	0x3f1919b5	0.5980485
97	0xbe31667e	-0.17324254
98	0x3f3fa1ba	0.7485615
99	0xbe935fd8	-0.2878406
100	0xbf9d4738	-1.2287359
101	0x3eb1045c	0.34573638
102	0xbedc2e33	-0.43003997
103	0xbec6613b	-0.38746056
104	0xbf8e7680	-1.1129913
105	0xbf566a1d	-0.83755666
106	0x3e7f4ed6	0.24932417
107	0xbfa3695b	-1.2766527
108	0x3fa869be	1.315727
109	0x3f8dc853	1.1076759
110	0x3cbaf7fa	0.022823323
111	0x3f4ac830	0.7921171
112	0xbf19a100	-0.6001129
113	0xbe31cee5	-0.1736408
114	0x4022f396	2.5461173
115	0x3e021bc8	0.1270591
116	0xbdb84665	-0.08997802
117	0x3ea7042c	0.3262037
118	0xbf11d83c	-0.5697057
119	0x3e4b0f8e	0.19830152
120	0xbe499a6b	-0.19687812
121	0x3e97bb9a	0.29635316
122	0xbf9f2456	-1.2432964
123	0xbf95450c	-1.1661696
124	0xbf71b43f	-0.9441566
125	0xbe0ddc47	-0.1385356
126	0x3faa5064	1.3305783
127	0xbf645dc0	-0.8920555
128	0xbf25a177	-0.646995
129	0xbf7a8bf3	-0.97869796
130	0x3e7f564d	0.24935265
131	0xbf547f96	-0.8300718
132	0x3f35ab0e	0.70964134
133	0x3f14cb11	0.58122355
134	0x3e573592	0.21016529
135	0x3fbdb37a	1.4820397
136	0xbf02e889	-0.5113607
137	0xbf8735cd	-1.0563294
138	0x3f1b6e0c	0.60714793
139	0xbf4a8f17	-0.7912459
140	0xbf021de1	-0.5082684
141	0x3f8c9e26	1.0985763
142	0x3f489535	0.7835267
143	0x3f699880	0.9124832
144	0x3ece0bd6	0.40243405
145	0x3f80c9e5	1.0061613
146	0xbf83d871	-1.0300428
147	0x3e94032b	0.28908667
148	0x3ecce064	0.40014946
149	0xc006c5f6	-2.1058326
150	0xbf656bfc	-0.89617896
151	0xbf4f2830	-0.80920696
152	0xbfa010a1	-1.2505075
153	0xbe3c0386	-0.18360719
154	0x3e001e73	0.12511615
155	0xbe5b1a44	-0.21396738
156	0xbf7c36c3	-0.9852106
157	0x3f9dab8b	1.2317976
158	0x3ff32303	1.899506
159	0x3e74455e	0.23854586
160	0x3f20a6fe	0.6275481
161	0x3e62572e	0.22103569
162	0x3eac2ca0	0.33627796
163	0x3f127416	0.57208383
164	0xbf745e89	-0.9545675
165	0xbeb3be5b	-0.35106167
166	0xbfc670d4	-1.5503182
167	0xbece91d5	-0.40345636
168	0x3f5658e7	0.83729404
169	0x3f6573db	0.89629906
170	0x3f872845	1.0559164
171	0xc0196c50	-2.3972359
172	0x3f119ea8	0.56882715
173	0xbf4bca29	-0.79605347
174	0xbf6dc50e	-0.92878807
175	0xbf048cab	-0.5177714
176	0xbf1448ec	-0.5792377
177	0xbe8d8f1a	-0.2764824
178	0x3ed843d0	0.42239237
179	0xbffda67a	-1.981643
180	0x3eb5997f	0.3546867
181	0x3f8c2f63	1.0951961
182	0x3d439355	0.04774793
183	0x3e83eb0c	0.25765264
184	0x3d067856	0.032829605
185	0x3d10bbd4	0.035335377
186	0xbfeeaec3	-1.8647083
187	0xbf128205	-0.57229644
188	0x3caef5b6	0.021357398
189	0xbe065487	-0.13118182
190	0x3f3febb2	0.7496902
191	0xbf87b99b	-1.0603517
192	0x3f61761a	0.88070834
193	0x3fb21fdc	1.3915973
194	0xbd0fc882	-0.03510333
195	0x3f1a5052	0.6027881
196	0xbfcebe87	-1.6151894
197	0x3f07695c	0.5289514
198	0xbece2f6b	-0.40270552
199	0xbfe9b3a7	-1.825795
200	0x3e0c8f0f	0.13726448
201	0x3a0f2fa6	0.0005462117
202	0x40075bba	2.1149735
203	0xbba6acb3	-0.0050865053
204	0x3f6df01a	0.9294449
205	0x3f83f4d9	1.0309097
206	0xbf797746	-0.9744762
207	0xbf1b3186	-0.6062244
208	0xbdd3e721	-0.10346819
209	0xbf39e0f3	-0.7260887
210	0x3ebddf9c	0.37084663
211	0xbf520950	-0.8204546
212	0xbf8d51f4	-1.1040635
213	0x3f312bdd	0.69207555
214	0x3fad2718	1.3527555
215	0xbef506a3	-0.47856626
216	0xbf18dbbc	-0.5971029
217	0xbe97aded	-0.29624882
218	0x3fdc9bcc	1.7235045
219	0x3f574d89	0.84102684
220	0x3f184e8f	0.5949487
221	0x3ff0b439	1.8805
222	0xbf534a9b	-0.82535714
223	0x3ee295e8	0.44254994
224	0x3f68cc2b	0.90936536
225	0xbe6952f8	-0.22785556
226	0x3ea2c2ee	0.31789345
227	0xbf137c65	-0.57611686
228	0xbe7409e7	-0.23831902
229	0x3e0140d9	0.12622394
230	0xc00b5983	-2.1773384
231	0xbf6d851e	-0.92781246
232	0xbe2d6981	-0.16934778
233	0xbf2d6265	-0.67728263
234	0x3f445ef6	0.767074
235	0xbf58819e	-0.8457278
236	0x3dc6fa6d	0.09715734
237	0xbe2fb8da	-0.17160359
238	0x3f354fcf	0.70824903
239	0x3f8286a8	1.0197344
240	0xbe496bb2	-0.19669989
241	0xbf4dcb38	-0.8038821
242	0x3fa323eb	1.2745336
243	0x3e93cbc4	0.28866398
244	0x3fc3b7b0	1.5290432
245	0x3fbcd9d7	1.475398
246	0xc008d96b	-2.1382701
247	0xbf81565b	-1.0104479
248	0xbf13068e	-0.57431877
249	0x3f2a643c	0.66559196
250	0x3f063faa	0.52440894
251	0x3ee67b77	0.4501607
252	0xbf9f1109	-1.2427074
253	0xbf2ae1a0	-0.66750526
254	0x3d7a75c9	0.061147485
255	0xbf49a6fd	-0.7877043

lstm.bias_ih_l1 f4 [32]
0	0xbf6fd0ef	-0.9367818
1	0x3d76d83e	0.06026482
2	0xbf177ddb	-0.59176415
3	0xbf592a5a	-0.8483025
4	0xbf6dd195	-0.9289792
5	0xbf84c857	-1.0373639
6	0xbf071483	-0.52765673
7	0xbef80b8f	-0.48446319
8	0xbdd52161	-0.10406757
9	0xbf18bab8	-0.5965991
10	0xbf782dc8	-0.96944857
11	0x3ee80fa1	0.45324424
12	0xbf005338	-0.5012698
13	0xbe5e9a58	-0.21738565
14	0x3e2c00ad	0.16797133
15	0xbf592344	-0.84819436
16	0xbd33bea5	-0.043882985
17	0x3e2bf1bd	0.16791435
18	0xbd4b8b93	-0.049693655
19	0x3e2ce2e2	0.16883424
20	0xbd9064d4	-0.070504814
21	0xbe4e989d	-0.20175405
22	0x3e63e437	0.22255026
23	0x3e34e985	0.17667206
24	0xbf19267c	-0.5982435
25	0xbebe8944	-0.372141
26	0xbecf33e8	-0.4046929
27	0xbe968b98	-0.29403377
28	0xbf896eb3	-1.0736908
29	0xbeaa9831	-0.33319238
30	0xbf1c484a	-0.61047804
31	0xbf1ac2d6	-0.60453546

lstm.bias_hh_l1 f4 [32]
0	0xbf21f483	-0.6326372
1	0xbe9f31ba	-0.31092626
2	0xbf727843	-0.94714755
3	0xbf7102f0	-0.9414511
4	0xbf4b62e3	-0.79447764
5	0xbf85cdc5	-1.0453421
6	0xbf3a0bf5	-0.72674495
7	0xbf5a5c80	-0.85297394
8	0xbd2760da	-0.04086385
9	0xbea25b28	-0.31710172
10	0xbf86a112	-1.0517905
11	0x3e9f3ae3	0.31099615
12	0xbec8b95e	-0.39203924
13	0xbddf1836	-0.1089329
14	0xbd1300d9	-0.03588948
15	0xbef87528	-0.48526883
16	0xbe3a4930	-0.18191981
17	0xbeb046bf	-0.34428975
18	0xbe3321ad	-0.17493315
19	0xbe767ba1	-0.24070598
20	0x3eb435ba	0.3519724
21	0xbf09c093	-0.5380947
22	0x3e50f7a1	0.20406963
23	0x3e0984aa	0.13429514
24	0xbf708ca2	-0.9396459
25	0xbf03c69c	-0.5147493
26	0xbf385d32	-0.72017205
27	0xbd59ac43	-0.053142797
28	0xbf9326f1	-1.1496259
29	0xbd8e3c7a	-0.06945129
30	0xbec8eb87	-0.39242193
31	0xbf42389a	-0.7586762
